tflite_inference_tool/model_files/fp32_indirect_output.tflite (tflite, 2240 bytes, 4 tensors)

test/conv2d_3/Conv2D f4 [8, 1, 1, 8]
-0.061727166 0.48098665 -0.4571524 0.06994325 -0.5053197 -0.092028916 0.12141222 0.37143946
-0.26304996 -0.39412975 0.084335685 0.3907377 -0.54933405 0.24069679 0.4970165 0.1982581
0.15308422 0.2718131 0.010426521 -0.2891333 -0.121470034 -0.44914556 0.38406152 0.47809023
-0.13641205 0.09524155 -0.39926082 0.32259923 0.52840334 -0.2522228 0.30629575 -0.39452484
-0.14364672 0.2981807 0.5587247 -0.17724517 -0.08236498 0.32964057 0.39909524 0.2016986
-0.5678985 0.04056388 -0.18490556 0.3077048 0.44780308 -0.13875976 -0.10544819 0.11828339
-0.048942745 0.0026047826 0.074041605 -0.020377338 -0.33193904 0.34988958 -0.44750774 -0.4875644
-0.21282604 0.14565057 0.02179575 -0.41571265 0.1221866 -0.25254196 0.5302287 -0.10225487
00000000: a0d5 7cbd e243 f63e e10f eabe 683e 8f3d
00000010: a25c 01bf a879 bcbd f8a6 f83d 502d be3e
00000020: 7cae 86be 60cb c9be 30b8 ac3d c60e c83e
00000030: 28a1 0cbf 3879 763e f278 fe3e 2c04 4b3e
00000040: 1cc2 1c3e 162b 8b3e 00d4 2a3c 4809 94be
00000050: 48c5 f8bd 68f6 e5be b6a3 c43e 3ec8 f43e
00000060: 9aaf 0bbe 000e c33d ea6b ccbe ba2b a53e
00000070: 7145 073f 5923 81be ccd2 9c3e 29ff c9be
00000080: 2018 13be 24ab 983e 9508 0f3f c27f 35be
00000090: f8ae a8bd a6c6 a83e 3656 cc3e 148a 4e3e
000000a0: cc61 11bf 5026 263d e257 3dbe 7c8b 9d3e
000000b0: 7246 e53e 0a17 0ebe 38f5 d7bd 903e f23d
000000c0: 3078 48bd 00b5 2a3b 20a3 973d 60ee a6bc
000000d0: eaf3 a9be ba24 b33e bc1f e5be 0ba2 f9be
000000e0: 12ef 59be 6c25 153e 008d b23c 4ad8 d4be
000000f0: f83c fa3d 2e4d 81be 11bd 073f 006b d1bd

test/conv2d_4/Conv2D f4 [8, 1, 1, 8]
0.13104159 0.51933056 -0.0997048 -0.48852393 -0.15614131 0.05468875 0.10524976 0.013545692
-0.25685996 -0.004753232 -0.27025625 0.006638646 0.0840081 -0.44098073 0.08580655 -0.55288744
0.53839654 0.5832276 -0.4534307 0.016782522 -0.59981066 -0.5838354 0.35049635 -0.40217602
-0.24520105 -0.43639457 -0.4445712 -0.5342987 0.20563406 -0.5715179 -0.4724333 -0.24415347
0.45641726 0.48334605 -0.0012545586 0.1296379 0.5008368 -0.14739075 -0.48739943 0.48148614
-0.261593 0.30541533 -0.5849437 0.5709768 -0.04167819 -0.30534557 0.14365327 -0.26033273
-0.040610433 -0.5859933 0.12191898 0.4788502 0.42487782 0.37857378 -0.07329512 -0.5291618
-0.3756456 -0.3230311 -0.10440791 -0.07499969 -0.31300345 0.45963484 0.32118386 0.34582037
00000000: c42f 063e d9f2 043f 0832 ccbd cf1f fabe
00000010: 82e3 1fbe 5001 603d 308d d73d c0ee 5d3c
00000020: 2683 83be 00c1 9bbb 075f 8abe 0089 d93b
00000030: 700c ac3d 3ac8 e1be 58bb af3d 088a 0dbf
00000040: 5bd4 093f 674e 153f 1228 e8be 807b 893c
00000050: 318d 19bf 3d76 15bf 4274 b33e 04ea cdbe
00000060: fc15 7bbe 1c6f dfbe d69e e3be cdc7 08bf
00000070: bc91 523e ff4e 12bf c7e2 f1be 5e03 7abe
00000080: 86af e93e 2279 f73e 0070 a4ba ccbf 043e
00000090: d736 003f 9aed 16be 6b8c f9be 5a85 f63e
000000a0: 85ef 85be 665f 9c3e dfbe 15bf 892b 123f
000000b0: c0b6 2abd 4156 9cbe d819 133e 554a 85be
000000c0: 2057 26bd a803 16bf a8b0 f93d da2b f53e
000000d0: 9689 d93e 6cd4 c13e c01b 96bd 2677 07bf
000000e0: 9f54 c0be 5564 a5be d0d3 d5bd 7099 99bd
000000f0: fd41 a0be 4255 eb3e 3672 a43e 5e0f b13e

test/conv2d_5/Conv2D f4 [8, 1, 1, 8]
-0.11073941 0.4697488 -0.048772812 0.1279583 -0.049545586 0.53836614 0.20918465 -0.28121173
0.3876161 0.101346135 -0.5136589 0.13956553 0.46463412 0.21046054 0.5890773 0.29413182
0.47929817 -0.3889809 -0.22521117 0.3254702 0.19158775 0.37624216 -0.19909742 0.38283336
0.1016171 0.19472468 -0.039983094 -0.06674564 0.0030593276 -0.44561043 -0.27194712 -0.18289936
0.3986376 -0.041691005 0.17233646 0.04007554 0.42823797 -0.10912025 -0.020834804 -0.19801456
0.12759626 0.17632288 -0.5903254 -0.1801931 0.5405051 0.106930554 0.50395566 0.330616
0.3919297 0.21007133 0.05995357 0.18768644 -0.4353028 0.6120228 -0.22364137 0.5264253
-0.45981473 0.44463485 -0.3935741 -0.38503218 0.023431122 0.37859058 -0.015461504 -0.3028307
00000000: 58cb e2bd ea82 f03e 00c6 47bd 8007 033e
00000010: 50f0 4abd 5dd2 093f 8034 563e fcfa 8fbe
00000020: 9e75 c63e 908e cf3d 267f 03bf 44ea 0e3e
00000030: 86e4 ed3e f882 573e c5cd 163f 7298 963e
00000040: 9266 f53e 8128 c7be c29d 66be 08a4 a63e
00000050: 942f 443e d0a2 c03e 32e0 4bbe bc02 c43e
00000060: a01c d03d e865 473e 50c5 23bd f0b1 88bd
00000070: 007f 483b 0d27 e4be a73c 8bbe f849 3bbe
00000080: 3a1a cc3e 30c4 2abd f878 303e 4026 243d
00000090: 0242 db3e 707a dfbd c0ad aabc 54c4 4abe
000000a0: 98a8 023e fc8d 343e 911f 17bf 8a84 38be
000000b0: 8b5e 0a3f 68fe da3d 3d03 013f 8046 a93e
000000c0: 02ab c83e f01c 573e e091 753d e030 403e
000000d0: 02e0 debe 87ad 1c3f 3e02 65be cfc3 063f
000000e0: d66c ebbe 2ea7 e33e 8b82 c9be f022 c5be
000000f0: a0f2 bf3c a0d6 c13e 4052 7dbc a00c 9bbe

test/conv2d_5/BiasAdd;test/conv2d_5/Conv2D f4 [8]
0.0 0.0 0.0 0.0 0.0 0.0 0.0 0.0
00000000: 0000 0000 0000 0000 0000 0000 0000 0000
00000010: 0000 0000 0000 0000 0000 0000 0000 0000
