tflite_inference_tool/model_files/fp32_direct_output.tflite (tflite, 2048 bytes, 4 tensors)

test/conv2d/Conv2D f4 [8, 1, 1, 8]
0.45558053 -0.37806046 0.14833802 0.08944708 -0.35111395 -0.29027987 0.19886106 0.5996799
0.4808337 -0.25339857 0.044667125 -0.47665828 -0.42549485 0.4560997 -0.18514383 -0.33882415
-0.36680818 -0.42158145 0.08809042 -0.1911341 -0.2521945 0.2692464 -0.3514042 0.09564161
0.015255928 -0.61046654 0.021404922 0.059975564 -0.53998315 0.46352452 0.44718772 -0.45361888
0.34995735 -0.3916463 -0.05365652 0.0033644438 -0.101686895 -0.34787244 -0.17692646 0.30959868
-0.47127348 0.54069644 0.48623258 -0.48292303 -0.26799676 0.298055 -0.3084161 0.5072935
-0.07530689 -0.20803899 -0.3253553 0.036827266 0.0030981302 0.4484431 -0.119532466 0.04446578
-0.5721747 0.45625824 0.06104809 -0.29830056 -0.14797491 -0.375312 -0.11553159 0.14646626
00000000: da41 e93e 2491 c1be ece5 173e 0830 b73d
00000010: 35c5 b3be 909f 94be 3ca2 4b3e 9f84 193f
00000020: d62f f63e 75bd 81be e0f4 363d 8e0c f4be
00000030: 76da d9be e685 e93e 5896 3dbe 5c7a adbe
00000040: 48ce bbbe 86d9 d7be c068 b43d a8b8 43be
00000050: a31f 81be aada 893e 40eb b3be c0df c33d
00000060: 00f4 793c 8947 1cbf 6059 af3c f0a8 753d
00000070: 563c 0abf 1653 ed3e caf5 e43e bc40 e8be
00000080: 9c2d b33e dd85 c8be f0c6 5bbd 007e 5c3b
00000090: 3841 d0bd 561c b2be 362c 35be b883 9e3e
000000a0: c24a f1be 156b 0a3f 7af3 f83e b041 f7be
000000b0: df36 89be aa9a 983e b7e8 9dbe fddd 013f
000000c0: 803a 9abd 2c08 55be f894 a6be 30d8 163d
000000d0: 000a 4b3b 569a e53e 70cd f4bd c021 363d
000000e0: 0b7a 12bf ae9a e93e 900d 7a3d daba 98be
000000f0: bc86 17be e528 c0be d49b ecbd 40fb 153e

test/conv2d_1/Conv2D f4 [8, 1, 1, 8]
-0.32773277 -0.5031667 -0.32951966 0.53435844 -0.5265262 -0.51869065 0.3553211 0.572632
-0.31767038 0.5115109 -0.060456097 0.080970824 -0.23817548 -0.003430605 -0.23191932 0.23422658
-0.24523929 -0.30708706 -0.3665467 0.2640276 0.542013 0.5504218 0.31526196 -0.31947407
-0.14000574 -0.4152634 -0.2791613 -0.49800786 0.4680515 0.27308214 -0.0068255663 -0.12498969
0.26612782 0.5851373 0.13884676 0.53329414 0.4903205 0.57736903 0.49988836 0.15306419
-0.08289105 0.4428411 -0.27855453 0.13247049 -0.32596675 -0.17376977 -0.0079443455 -0.25501698
0.49823338 -0.0007081032 0.0480479 -0.39556074 0.5555158 -0.34716752 0.08043003 -0.07378352
0.5247112 -0.588693 -0.19991243 0.12195575 -0.3252566 0.30434602 -0.41529828 -0.31564695
00000000: 97cc a7be 88cf 00bf cdb6 a8be b7cb 083f
00000010: 6cca 06bf e9c8 04bf a6ec b53e 0398 123f
00000020: b1a5 a2be 61f2 023f d0a0 77bd 08d4 a53d
00000030: 46e4 73be 00d4 60bb 427c 6dbe 18d9 6f3e
00000040: 0220 7bbe 843a 9dbe 02ac bbbe a02e 873e
00000050: 5dc1 0a3f 71e8 0c3f 046a a13e 1b92 a3be
00000060: aa5d 0fbe 689d d4be 3bee 8ebe e3fa febe
00000070: 72a4 ef3e 6cd1 8b3e 00a9 dfbb 98fa ffbd
00000080: e841 883e 8fcb 153f d82d 0e3e f785 083f
00000090: 4a0b fb3e 75ce 133f 5ef1 ff3e dcbc 1c3e
000000a0: c8c2 a9bd 12bc e23e b39e 8ebe 58a6 073e
000000b0: 1de5 a6be b4f0 31be 0029 02bc 9691 82be
000000c0: 7218 ff3e 00a0 39ba e0cd 443d f086 cabe
000000d0: 4936 0e3f f1bf b1be 80b8 a43d d01b 97bd
000000e0: 7953 063f 96b4 16bf d8b5 4cbe f0c3 f93d
000000f0: 0888 a6be 3ed3 9b3e faa1 d4be 7a9c a1be

test/conv2d_2/Conv2D f4 [8, 1, 1, 8]
-0.6068012 -0.093010485 0.034757137 -0.19157094 -0.4788477 -0.19777629 0.5786769 0.15316814
-0.37956703 0.19511044 0.3078984 -0.29153502 0.29352617 -0.28264782 0.25766224 0.54644865
-0.33974573 0.52536577 0.18585777 0.28346115 0.14770043 -0.40749806 0.13514346 -0.4078273
0.4724285 0.40441793 0.54305106 0.18051255 0.19518566 0.30713493 0.40794915 0.080488145
0.37538034 0.33304298 -0.27393314 0.090452135 0.13746548 -0.5249199 0.16400623 -0.41178143
-0.35067827 0.14927006 -0.38942695 -0.57470423 -0.2500373 0.05820185 -0.24003479 0.50225717
0.5711196 0.4917118 -0.45599535 -0.2575365 -0.54225475 -0.519501 0.48837632 0.29255968
-0.38511992 0.3658564 -0.46973854 -0.15794998 -0.46643776 0.44287044 0.110735774 0.37349385
00000000: 5357 1bbf 487c bebd 805d 0e3d 2c2b 44be
00000010: 872b f5be de85 4abe 2b24 143f 1cd8 1c3e
00000020: 9c56 c2be 08cb 473e dca4 9d3e 1444 95be
00000030: 1049 963e 37b7 90be 4eec 833e 0fe4 0b3f
00000040: 27f3 adbe 5f7e 063f 8051 3e3e d221 913e
00000050: c83e 173e 96a3 d0be 0c63 0a3e bdce d0be
00000060: 26e2 f13e de0f cf3e 6505 0b3f 48d8 383e
00000070: c0de 473e ca40 9d3e b6de d03e f8d6 a43d
00000080: da31 c03e 9c84 aa3e f740 8cbe f83e b93d
00000090: c0c3 0c3e 2761 06bf 40f1 273e 04d5 d2be
000000a0: 1a8c b3be 40da 183e f862 c7be d11f 13bf
000000b0: e404 80be 1065 6e3d aecb 75be ed93 003f
000000c0: e534 123f a6c1 fb3e 3978 e9be d3db 83be
000000d0: 35d1 0abf 04fe 04bf 760c fa3e 62ca 953e
000000e0: 702e c5be 8851 bb3e 9281 f0be a4bd 21be
000000f0: eed0 eebe eabf e23e 70c9 e23d 963a bf3e

test/conv2d_2/BiasAdd;test/conv2d_2/Conv2D f4 [8]
0.0 0.0 0.0 0.0 0.0 0.0 0.0 0.0
00000000: 0000 0000 0000 0000 0000 0000 0000 0000
00000010: 0000 0000 0000 0000 0000 0000 0000 0000
